C:\Users\Arron\AppData\Local\conda\conda\envs\machine\python.exe C:/Documents/PycharmProjects/cancer2.0/model_size.py
----------------------------------------------------------------
        Layer (type)               Output Shape         Param #
================================================================
            Conv2d-1           [-1, 64, 16, 16]           9,408
       BatchNorm2d-2           [-1, 64, 16, 16]             128
              ReLU-3           [-1, 64, 16, 16]               0
            Conv2d-4           [-1, 64, 16, 16]          36,864
       BatchNorm2d-5           [-1, 64, 16, 16]             128
              ReLU-6           [-1, 64, 16, 16]               0
            Conv2d-7           [-1, 64, 16, 16]          36,864
       BatchNorm2d-8           [-1, 64, 16, 16]             128
              ReLU-9           [-1, 64, 16, 16]               0
       BasicBlock-10           [-1, 64, 16, 16]               0
           Conv2d-11           [-1, 64, 16, 16]          36,864
      BatchNorm2d-12           [-1, 64, 16, 16]             128
             ReLU-13           [-1, 64, 16, 16]               0
           Conv2d-14           [-1, 64, 16, 16]          36,864
      BatchNorm2d-15           [-1, 64, 16, 16]             128
             ReLU-16           [-1, 64, 16, 16]               0
       BasicBlock-17           [-1, 64, 16, 16]               0
           Conv2d-18            [-1, 128, 8, 8]          73,728
      BatchNorm2d-19            [-1, 128, 8, 8]             256
             ReLU-20            [-1, 128, 8, 8]               0
           Conv2d-21            [-1, 128, 8, 8]         147,456
      BatchNorm2d-22            [-1, 128, 8, 8]             256
           Conv2d-23            [-1, 128, 8, 8]           8,192
      BatchNorm2d-24            [-1, 128, 8, 8]             256
             ReLU-25            [-1, 128, 8, 8]               0
       BasicBlock-26            [-1, 128, 8, 8]               0
           Conv2d-27            [-1, 128, 8, 8]         147,456
      BatchNorm2d-28            [-1, 128, 8, 8]             256
             ReLU-29            [-1, 128, 8, 8]               0
           Conv2d-30            [-1, 128, 8, 8]         147,456
      BatchNorm2d-31            [-1, 128, 8, 8]             256
             ReLU-32            [-1, 128, 8, 8]               0
       BasicBlock-33            [-1, 128, 8, 8]               0
           Conv2d-34            [-1, 256, 4, 4]         294,912
      BatchNorm2d-35            [-1, 256, 4, 4]             512
             ReLU-36            [-1, 256, 4, 4]               0
           Conv2d-37            [-1, 256, 4, 4]         589,824
      BatchNorm2d-38            [-1, 256, 4, 4]             512
           Conv2d-39            [-1, 256, 4, 4]          32,768
      BatchNorm2d-40            [-1, 256, 4, 4]             512
             ReLU-41            [-1, 256, 4, 4]               0
       BasicBlock-42            [-1, 256, 4, 4]               0
           Conv2d-43            [-1, 256, 4, 4]         589,824
      BatchNorm2d-44            [-1, 256, 4, 4]             512
             ReLU-45            [-1, 256, 4, 4]               0
           Conv2d-46            [-1, 256, 4, 4]         589,824
      BatchNorm2d-47            [-1, 256, 4, 4]             512
             ReLU-48            [-1, 256, 4, 4]               0
       BasicBlock-49            [-1, 256, 4, 4]               0
           Conv2d-50            [-1, 512, 2, 2]       1,179,648
      BatchNorm2d-51            [-1, 512, 2, 2]           1,024
             ReLU-52            [-1, 512, 2, 2]               0
           Conv2d-53            [-1, 512, 2, 2]       2,359,296
      BatchNorm2d-54            [-1, 512, 2, 2]           1,024
           Conv2d-55            [-1, 512, 2, 2]         131,072
      BatchNorm2d-56            [-1, 512, 2, 2]           1,024
             ReLU-57            [-1, 512, 2, 2]               0
       BasicBlock-58            [-1, 512, 2, 2]               0
           Conv2d-59            [-1, 512, 2, 2]       2,359,296
      BatchNorm2d-60            [-1, 512, 2, 2]           1,024
             ReLU-61            [-1, 512, 2, 2]               0
           Conv2d-62            [-1, 512, 2, 2]       2,359,296
      BatchNorm2d-63            [-1, 512, 2, 2]           1,024
             ReLU-64            [-1, 512, 2, 2]               0
       BasicBlock-65            [-1, 512, 2, 2]               0
           Linear-66                    [-1, 2]           4,098
================================================================
Total params: 11,180,610
Trainable params: 11,180,610
Non-trainable params: 0
----------------------------------------------------------------
Input size (MB): 0.01
Forward/backward pass size (MB): 3.88
Params size (MB): 42.65
Estimated Total Size (MB): 46.54
----------------------------------------------------------------

Process finished with exit code 0
